Ternary Logs OLD/Dyck1_TernaryClassification_5_bracket_pairs_LSTM_Feedback_EndofSequence_2hidden_units_Adam_lr=0.001_30epochs__MODEL.pth (torch_old, 1563 bytes, 8 tensors)

fc1.weight f4 [2, 2]
0.9782335 -1.11369 0.37190124 -1.6893644
00000000: 836d 7a3f 658d 8ebf d769 be3e 183d d8bf

fc1.bias f4 [2]
0.3590929 -0.72650963
00000000: 06db b73e 89fc 39bf

lstm.weight_ih_l0 f4 [8, 2]
0.28704008 -1.0194919 0.9462219 -0.6101121 1.3270856 -0.19113693 0.8531176 -0.9738949
-0.34383616 -0.20701401 -0.5166078 -1.0844213 0.51512444 -0.8596318 0.37251365 -0.96351975
00000000: ebf6 923e b67e 82bf 993b 723f 4e30 1cbf
00000010: f1dd a93f 66b9 43be ea65 5a3f 2d51 79bf
00000020: 4b0b b0be 7bfb 53be 6940 04bf 51ce 8abf
00000030: 32df 033f d410 5cbf 1cba be3e 3ba9 76bf

lstm.weight_hh_l0 f4 [8, 2]
1.4887394 1.3062944 -0.4956143 0.69981354 1.6968001 -0.06668691 -0.56730074 -0.72394073
0.91062176 1.3886501 0.75384086 -0.03340823 2.1705315 0.9529087 -1.5224352 0.29337704
00000000: 038f be3f a834 a73f 28c1 fdbe fb26 333f
00000010: bf30 d93f 2693 88bd 9f3a 11bf 2e54 39bf
00000020: 821e 693f 49bf b13f b7fb 403f 11d7 08bd
00000030: fde9 0a40 d3f1 733f 28df c2bf 8435 963e

lstm.bias_ih_l0 f4 [8]
0.062436115 0.41668373 0.43907744 0.9028521 -0.34313288 -0.098348275 0.6199018 0.6983872
00000000: 03bd 7f3d 9257 d53e c2ce e03e 5121 673f
00000010: 1daf afbe d26a c9bd e2b1 1e3f 81c9 323f

lstm.bias_hh_l0 f4 [8]
0.20217678 0.46826172 0.050343048 1.6013335 0.14040379 -0.35151586 0.08282153 1.1287408
00000000: 6e07 4f3e 00c0 ef3e 8334 4e3d 7ff8 cc3f
00000010: 03c6 0f3e e3f9 b3be 569e a93d 947a 903f

fc2.weight f4 [3, 2]
-2.857998 2.3767216 -1.3167921 -5.7175736 4.912593 0.019727811
00000000: 70e9 36c0 351c 1840 a58c a8bf 5df6 b6c0
00000010: f633 9d40 389c a13c

fc2.bias f4 [3]
0.8870125 -1.3418292 -0.23322766
00000000: 4013 633f 0fc1 abbf 3bd3 6ebe
