Ternary Logs OLD/Dyck1_TernaryClassification_5_bracket_pairs_LSTM_Feedback_EveryTimeStep_2hidden_units_Adam_lr=0.001_30epochs__MODEL.pth (torch_old, 1563 bytes, 8 tensors)

fc1.weight f4 [2, 2]
00000000: b9e8 cb3f 9957 e4bf d57a 3040 2c3b 7d40
1.5930396 -1.7839233 2.757497 3.9567366

fc1.bias f4 [2]
00000000: e057 d63e 2a52 2e3d
0.41863918 0.042558827

lstm.weight_ih_l0 f4 [8, 2]
00000000: 92cb aebe 227b e83f 7e8e 9abf 2ba9 d03f
00000010: fcfe f53e 3324 903f 6b11 2d3f aa55 3fbe
00000020: 8ca1 85bf 259c 7d3e ae44 27bf 4615 413d
00000030: b000 d0be 9844 1f40 9427 20bf c367 0640
-0.34139687 1.8162577 -1.2074735 1.6301626 0.480461 1.1261047 0.676047 -0.18685022
-1.0439925 0.24766596 -0.6533917 0.04713943 -0.40625525 2.4885616 -0.6256039 2.100083

lstm.weight_hh_l0 f4 [8, 2]
00000000: ed15 dfbf fcc9 dfbf 73e2 0640 fcba 90be
00000010: 0a63 fdbf 63c4 bf3f 6a3c 6bbe 5179 b23f
00000020: 6ee2 253f 1911 943f 8804 8440 9686 443f
00000030: 8bd4 0abe 9b8f 87bf b7cb a93f 235f 93be
-1.7428566 -1.7483516 2.1075714 -0.28267658 -1.9795849 1.4981807 -0.22972265 1.3943273
0.6479863 1.1567718 4.125553 0.7676786 -0.13557641 -1.05907 1.3265294 -0.2878352

lstm.bias_ih_l0 f4 [8]
00000000: f7f0 8cbf a2c3 e6be 1173 fcbe a5e7 3dbd
00000010: 788b 4bbe c6c5 89be 1531 5abf f981 b6bf
-1.1011037 -0.4507113 -0.4930654 -0.04636349 -0.19877422 -0.26908702 -0.85231143 -1.4258415

lstm.bias_hh_l0 f4 [8]
00000000: 8294 95be 62d5 5fbf c34b efbe c999 4cbd
00000010: 7702 203f b746 0a3f e366 05c0 e0d6 69bf
-0.29214865 -0.8743497 -0.4673749 -0.04995135 0.6250376 0.5401415 -2.0844047 -0.913435

fc2.weight f4 [3, 2]
00000000: f171 f640 c994 c3c0 2a55 60c1 d0f2 b7bf
00000010: d124 c740 4ffb 0141
7.701409 -6.1119123 -14.020792 -1.4370975 6.223244 8.123855

fc2.bias f4 [3]
00000000: c99f cc3e 5d9a cc3e 75ad cc3e
0.39965656 0.3996152 0.39976087
