New Folder With Items/Dyck1_TernaryClassification_5_bracket_pairs_LSTM_2hidden_units_Adam_lr=0.001_20epochs__MODEL.pth (torch_old, 1563 bytes, 8 tensors)

fc1.weight f4 [2, 2]
0	0xc030e9b4	-2.764264
1	0x3ec93074	0.3929478
2	0x3f6fbf47	0.9365124
3	0xbf8a6b1c	-1.0813937

fc1.bias f4 [2]
0	0xbec4b8d0	-0.3842225
1	0x3e0b34b1	0.13594319

lstm.weight_ih_l0 f4 [8, 2]
0	0xbf00ee4f	-0.5036363
1	0xbddb8477	-0.10718625
2	0x3e2f89d3	0.1714242
3	0xbf3688f7	-0.7130274
4	0xbf4534e9	-0.7703386
5	0x3f6aeb50	0.9176531
6	0xbfaad6f2	-1.3346846
7	0x3f3fb944	0.7489207
8	0x3f82ed91	1.022875
9	0xbf9bb5a9	-1.2164813
10	0x3d2de78c	0.04245715
11	0x3f3a9593	0.7288448
12	0xbf8097bb	-1.0046304
13	0x3f077b6d	0.5292271
14	0xbff3e60f	-1.9054583
15	0xbffe6a91	-1.9876271

lstm.weight_hh_l0 f4 [8, 2]
0	0xbfaa658f	-1.3312243
1	0x403cfa92	2.9527936
2	0x3fbad191	1.4595205
3	0x3f414000	0.7548828
4	0xbf6e39fb	-0.9305722
5	0x3fe91f5a	1.8212693
6	0xbfc439b1	-1.5330106
7	0xbf128b2f	-0.5724363
8	0xbf80a4e2	-1.0050318
9	0x3fa8dc40	1.3192215
10	0xbf7c45c6	-0.98543966
11	0x3f80d368	1.0064516
12	0xbfc6299b	-1.5481447
13	0x405c78a7	3.444864
14	0xbf381091	-0.7190028
15	0xbe525255	-0.2053922

lstm.bias_ih_l0 f4 [8]
0	0x3fee75cc	1.8629699
1	0x3f759d05	0.9594272
2	0x3f23a73e	0.63927066
3	0x3ea6d30b	0.32582888
4	0xbd3281a8	-0.04358068
5	0x3ea41f88	0.32055306
6	0x3fbc19ff	1.4695433
7	0x3fde21ed	1.7354103

lstm.bias_hh_l0 f4 [8]
0	0x3fcf63e4	1.6202359
1	0x3e93ac98	0.28842616
2	0x3e0a16fa	0.13485327
3	0xbdbca823	-0.09211757
4	0x3ed2cddb	0.4117268
5	0xbf00fa25	-0.5038169
6	0x3fa65ce7	1.2997102
7	0x3fd5f439	1.6715156

fc2.weight f4 [3, 2]
0	0x40abd38e	5.3695745
1	0x3fbb0e8b	1.4613813
2	0xc0392d3a	-2.8933854
3	0x40175509	2.3645651
4	0xbebcb146	-0.36854
5	0xc0ba8323	-5.828508

fc2.bias f4 [3]
0	0x3f1b038a	0.60552275
1	0xbfc69a72	-1.5515883
2	0x3f55a108	0.8344884
