New Folder With Items/Dyck1_TernaryClassification_5_bracket_pairs_LSTM_2hidden_units_Adam_lr=0.001_5epochs__MODEL.pth (torch_old, 1563 bytes, 8 tensors)

fc1.weight f4 [2, 2]
0	0x3f0ad640	0.5423317
1	0x3eda1a72	0.425983
2	0xbf31a407	-0.6939091
3	0x3f6b12b0	0.9182539

fc1.bias f4 [2]
0	0x3f0cc96a	0.54994833
1	0xbf2afe3b	-0.66794175

lstm.weight_ih_l0 f4 [8, 2]
0	0x3f383a0f	0.7196359
1	0xbfc3a5a2	-1.5284922
2	0x3f9d51f4	1.2290635
3	0xbf3ab038	-0.7292514
4	0xbdce311a	-0.10067959
5	0xc008ca9c	-2.1373663
6	0x3e338c4b	0.17533986
7	0xbf9a43db	-1.2051958
8	0xbe91d41b	-0.28482136
9	0x3f94cf19	1.1625701
10	0x3dd07978	0.10179418
11	0x3f3954e0	0.72395134
12	0x3f5cebc2	0.8629724
13	0xbfd82cbe	-1.6888654
14	0x3f84c838	1.0373602
15	0xbf78c728	-0.9717889

lstm.weight_hh_l0 f4 [8, 2]
0	0xbe3ef65c	-0.18648666
1	0x3fe9e90c	1.8274245
2	0x3ef5188d	0.47870293
3	0x3f346904	0.7047274
4	0xbf0504ea	-0.51960623
5	0x3ea0b0d2	0.31384903
6	0xbdd3b7bc	-0.10337779
7	0x3e7a95ec	0.24471253
8	0xbeb82028	-0.35962033
9	0xbf979448	-1.1842127
10	0xbd713ba4	-0.05889477
11	0x3f1f7cb8	0.6229968
12	0xbdaf3634	-0.0855526
13	0x3fb7a706	1.4347847
14	0xbf731890	-0.94959354
15	0x3df6c4dc	0.12049267

lstm.bias_ih_l0 f4 [8]
0	0x3e0bf6ea	0.13668409
1	0x3f8845cb	1.0646299
2	0xbe9c6b2b	-0.30550513
3	0x3e6f55d6	0.23372588
4	0xbe85acc6	-0.26108378
5	0xbdd415c0	-0.10355711
6	0x3f83cc75	1.029677
7	0x3f9ebed5	1.2401987

lstm.bias_hh_l0 f4 [8]
0	0x3f3b81be	0.73244846
1	0x3e6cad9d	0.23113103
2	0xbe2dccee	-0.16972706
3	0x3f667022	0.9001485
4	0x3f3c262d	0.7349575
5	0x3f036483	0.51325244
6	0x3e5d9d94	0.21642143
7	0x3faf51b7	1.3696812

fc2.weight f4 [3, 2]
0	0x40123b05	2.2848523
1	0x3f851478	1.0396872
2	0xbf57e8cd	-0.843396
3	0xc0681b98	-3.6266842
4	0xbff1e7c1	-1.8898851
5	0x400cde05	2.201051

fc2.bias f4 [3]
0	0x3f201565	0.62532645
1	0xbf17d451	-0.59308344
2	0xbf6798d7	-0.9046759
