New Folder With Items/Dyck1_TernaryClassification_5_bracket_pairs_LSTM_2hidden_units_Adam_lr=0.001_3epochs__MODEL.pth (torch_old, 1563 bytes, 8 tensors)

fc1.weight f4 [2, 2]
1.5352328 -0.5793784 -0.5021506 0.6573636
00000000: 8282 c43f 2552 14bf f18c 00bf fb48 283f

fc1.bias f4 [2]
0.40619397 0.3037019
00000000: a8f8 cf3e d17e 9b3e

lstm.weight_ih_l0 f4 [8, 2]
0.47173506 -0.1450716 -0.32059404 1.0389279 1.4670606 -0.012021919 0.9461596 -0.18297695
1.5780103 -1.1815212 -0.3702142 0.31767467 0.8125412 0.520681 0.95672643 0.44118708
00000000: 4287 f13e a68d 14be e724 a4be 97fb 843f
00000010: a4c8 bb3f 95f7 44bc 8437 723f 4f5e 3bbe
00000020: 3efc c93f 163c 97bf b78c bdbe 41a6 a23e
00000030: b302 503f 5a4b 053f 06ec 743f 46e3 e13e

lstm.weight_hh_l0 f4 [8, 2]
0.023365846 -0.8390996 -0.7809549 -1.0607041 1.0538766 -0.95494676 1.1058578 0.8574792
-0.87720734 0.94900686 -1.2131188 1.0311841 0.7671193 -2.3295176 1.0476441 0.22753392
00000000: bb69 bf3c 3bcf 56bf a9ec 47bf 27c5 87bf
00000010: 6ee5 863f 6477 74bf c08c 8d3f c283 5b3f
00000020: a990 60bf 1df2 723f 7a47 9bbf d7fd 833f
00000030: ee61 443f d116 15c0 3419 863f a7fe 683e

lstm.bias_ih_l0 f4 [8]
1.3749306 0.24945818 0.22077742 0.77003634 0.27801692 0.15688632 1.1566993 1.4400617
00000000: bafd af3f f771 7f3e 7a13 623e 1a21 453f
00000010: 3c58 8e3e cfa6 203e b90e 943f f153 b83f

lstm.bias_hh_l0 f4 [8]
1.0715702 -0.038501643 -0.10058109 0.45307228 -0.0689544 0.31658232 1.1631289 1.1696434
00000000: 3629 893f e6b3 1dbd 75fd cdbd 17f9 e73e
00000010: f737 8dbd 1417 a23e 68e1 943f e0b6 953f

fc2.weight f4 [3, 2]
-2.8742743 -0.9742035 0.809226 -1.6563792 -0.027746517 1.9046971
00000000: 1cf4 37c0 6765 79bf 6f29 4f3f 3c04 d4bf
00000010: aa4c e3bc 1dcd f33f

fc2.bias f4 [3]
-0.09265756 -0.79494137 0.0020121704
00000000: 3fc3 bdbd 4781 4bbf 9ede 033b
