New Folder With Items/Dyck1_TernaryClassification_5_bracket_pairs_LSTM_2hidden_units_Adam_lr=0.001_10epochs__MODEL.pth (torch_old, 1563 bytes, 8 tensors)

fc1.weight f4 [2, 2]
0	0x3f3f6739	0.7476688
1	0xbf2c2930	-0.6725035
2	0xbdecbb2c	-0.11559138
3	0xbf8c55a4	-1.0963635

fc1.bias f4 [2]
0	0x3f01cf17	0.5070662
1	0xbe7eee17	-0.24895512

lstm.weight_ih_l0 f4 [8, 2]
0	0x3f0ee848	0.55823183
1	0xbf91398f	-1.134569
2	0x3e474914	0.19461471
3	0x3d4338ab	0.047661465
4	0x3fe60774	1.7971025
5	0xbf7e02f1	-0.9922324
6	0xbf4c6aa7	-0.7985024
7	0x3f0e08e5	0.5548232
8	0x3f684370	0.907279
9	0x3e9ffdb7	0.31248257
10	0xbe9805b2	-0.29691845
11	0x3c4a6636	0.012353471
12	0x3fe9109f	1.8208197
13	0xbff82e87	-1.9389199
14	0x3f4cd2ee	0.80009353
15	0x3ef68081	0.48144916

lstm.weight_hh_l0 f4 [8, 2]
0	0xbf1366ca	-0.5757872
1	0x3f97f4b4	1.1871552
2	0xbed68d7e	-0.41904825
3	0x3e4d0d21	0.2002454
4	0xbf3c35fc	-0.73519874
5	0xbf7586ba	-0.959087
6	0xbf5544ff	-0.83308405
7	0xbf4205e4	-0.7579024
8	0x3f51567e	0.817726
9	0xbe02f913	-0.12790327
10	0x402f9288	2.7433186
11	0xbf2762d3	-0.6538517
12	0xbe04dda3	-0.12975173
13	0xbf6efcdd	-0.9335459
14	0xbfbfda53	-1.4988502
15	0xbf530998	-0.82436514

lstm.bias_ih_l0 f4 [8]
0	0x3f541b9b	0.8285462
1	0x3ee6e424	0.45095932
2	0x3f34c9aa	0.70620215
3	0x3f033076	0.5124582
4	0xbec4f12e	-0.38465255
5	0x3e8cab1f	0.27474305
6	0x3fcfdba4	1.6238904
7	0x3f81f303	1.0152286

lstm.bias_hh_l0 f4 [8]
0	0x3f34374b	0.7039687
1	0x3c08a705	0.008340602
2	0x3e46298f	0.19351791
3	0xbe5f6a02	-0.21817783
4	0xbc3b0c82	-0.011416556
5	0xbea4439a	-0.32082826
6	0x3ff93dd5	1.9471995
7	0x3f225ab8	0.63419676

fc2.weight f4 [3, 2]
0	0xbf91285f	-1.1340445
1	0x4010cca9	2.2624915
2	0x40a64dec	5.197012
3	0x3f647b96	0.8925108
4	0xc02a4b92	-2.6608624
5	0xc021dc19	-2.5290587

fc2.bias f4 [3]
0	0x3faa9b50	1.3328648
1	0xbf72ee41	-0.94894797
2	0xbf811eba	-1.0087502
